Gesture reader/model/keypoint_classifier/keypoint_classifier.tflite (tflite, 6600 bytes, 6 tensors)

arith.constant f4 [5, 10]
000000 7a df b6 be 9c 5f 05 bf c5 82 0a bf c5 01 09 be
       -0.35717374 -0.52099013 -0.5410579 -0.13379581
000010 58 6c 7d 3f 27 95 ca 3e 99 7d 62 3f 37 6c 9f 3f
       0.98993444 0.3956692 0.88472897 1.24549
000020 2f 34 34 bf 47 b7 a8 be a6 25 52 bf 25 a2 e7 3e
       -0.70392126 -0.3295233 -0.82088697 0.45240894
000030 31 f5 3d bf 92 c6 95 3f b9 d5 b2 be 75 26 0b bf
       -0.7420226 1.1701224 -0.34928682 -0.54355556
000040 67 6c 31 3f 1f bb 02 3e 9c 88 2e 3f 3b 02 68 bf
       0.69306034 0.12766694 0.681772 -0.90628403
000050 7e 0c 8b 3f e3 6b 21 3f df fd 85 3f 0e 7b 4b 3e
       1.0863187 0.6305525 1.04681 0.1987116
000060 e2 b8 24 bf 0d 1e 22 bf 14 ec c1 3e 3f 97 05 bf
       -0.6434461 -0.63327104 0.37875426 -0.5218391
000070 4e 39 22 bf 1f 7f 88 bf 50 89 ac bf 11 e3 cc 3c
       -0.6336869 -1.0663794 -1.3479404 0.025010617
000080 25 83 2f bf d5 b1 6e bd 77 73 93 be f6 73 99 be
       -0.68559486 -0.058275063 -0.2879903 -0.29971284
000090 b6 a9 0c c0 d9 14 89 3f c1 c1 8c bf 8d 38 68 3f
       -2.1978583 1.0709487 -1.0996629 0.9071129
0000a0 79 82 9d bf 77 51 01 bf 80 17 81 bf 92 45 b1 be
       -1.2305442 -0.5051493 -1.0085297 -0.3462339
0000b0 0c 8f 35 bf a0 ab 48 bf 0e b5 02 bf 42 98 3f be
       -0.709214 -0.7838688 -0.5105752 -0.18710425
0000c0 c3 46 6c 3f 29 9e 1b 3f
       0.92295474 0.6078821

arith.constant1 f4 [10, 20]
000000 3c 06 38 3e 24 13 9d be 73 e2 aa 3e 6c 9d f8 be
       0.17971128 -0.30678666 0.33375892 -0.48557603
000010 ef e4 17 be a7 dd 0b bf 11 cd 46 bf ac 0a ab 3e
       -0.14833425 -0.5463509 -0.77656657 0.3340658
000020 7f 24 ac bf 52 ed dd 3e 59 2a 98 bf dd 09 39 bd
       -1.3448638 0.43345124 -1.1887923 -0.045175422
000030 f7 25 cb 3e d0 16 73 bf 60 2d 91 3d 11 b0 47 be
       0.39677402 -0.94956684 0.07088733 -0.19500758
000040 fd 9a 91 be 59 4f c9 3c 1c f3 0a be 25 ba 7a 3e
       -0.2843856 0.024573969 -0.13569301 0.24485071
000050 25 0c e4 3e 8b d4 bf be ae 27 cf bd 4f 2d 22 be
       0.44540516 -0.37466845 -0.1011499 -0.15837596
000060 8c 64 7e be ca 83 26 3f 4a 7c a2 be be 40 b6 3e
       -0.24843043 0.65044844 -0.3173545 0.3559627
000070 5d 08 52 be 4a 62 99 bc 9e 96 99 be 84 45 5f be
       -0.20511003 -0.018723626 -0.29997724 -0.21803862
000080 6d 62 16 3f 3d 88 c9 be 93 e9 e6 3e 63 96 d2 3e
       0.58743936 -0.39361754 0.45100078 0.4113036
000090 9b 9f 49 be 5f a8 a9 3e 08 58 c0 3d 33 f7 e9 3e
       -0.19689791 0.3313627 0.09391791 0.4569641
0000a0 60 8b ac 3e 96 86 3c bf a5 dc 50 3e b9 5e 94 be
       0.33700085 -0.7364286 0.20396669 -0.28978518
0000b0 57 99 6b bd 6a 24 ea be 98 f0 30 bf 48 aa 9d 3c
       -0.057519283 -0.45730907 -0.69117117 0.019246235
0000c0 1a 5e 66 bf c5 93 51 3f 0d 5a 98 bf 17 9b e5 3c
       -0.8998734 0.81866103 -1.1902481 0.028028054
0000d0 32 de 94 3e c0 14 92 bf 43 b8 bf bd 6d 25 66 be
       0.29075772 -1.1412582 -0.09361317 -0.22475214
0000e0 cf e6 b0 be 58 aa 86 3e 7a a5 b3 3e bc d2 ca 3e
       -0.34551093 0.26301837 0.35087186 0.39613903
0000f0 46 bd 89 3e aa c3 2c 3d 4e 8d 89 3e ac b1 4d 3d
       0.26902217 0.042178787 0.2686562 0.05021827
000100 82 f0 fb bd 85 e0 39 3f f4 7b 75 bc 2e 27 92 3e
       -0.123017326 0.72608215 -0.014983166 0.28545517
000110 9c b8 84 3d cf 9b cf be 5a 7f 81 3d dd a3 49 3f
       0.06480524 -0.4054856 0.063231185 0.7876566
000120 6a a5 53 3e 0d 25 2e be b9 be 83 3f 8e 21 31 3f
       0.20668569 -0.17006321 1.0292579 0.69191825
000130 cb 33 59 3e 32 28 aa 3e 4f f5 12 3f 1b 0f eb 3e
       0.21211164 0.33233792 0.5740556 0.45909962
000140 4e a4 84 3e 29 8d 9d 3e 89 ed 39 3f 45 fc df 3e
       0.25906605 0.3077176 0.72628075 0.43747154
000150 7c f3 af 3e 44 4c f4 bd 3c 90 c5 3e 73 16 7f 3d
       0.3436545 -0.11928609 0.38586605 0.06227727
000160 01 e9 ad 3e 9b 4b bc 3e d2 7d 4f 3d cf 6e 2d bf
       0.3396683 0.36776432 0.0506571 -0.67747205
000170 a3 2f ed 3e b0 fe b1 3e 93 de b7 bd 7d da 62 be
       0.46325406 0.34764624 -0.089779995 -0.22153659
000180 b8 e1 43 be fb 9e 9c be 30 fd ef 3e 81 80 24 bd
       -0.19129074 -0.30590042 0.46872854 -0.040161613
000190 5b bc 76 bc 46 98 49 3f 34 a6 1f 3f f8 2b 1a 3f
       -0.015059556 0.78747976 0.6236298 0.6022334
0001a0 fa f6 1a 3e 39 3d ba bd f4 3d 0a bf 35 3e 9c 3c
       0.15133277 -0.090937085 -0.5400078 0.019072631
0001b0 e5 14 76 3e 6c 40 6e 3f 03 2e 0b 3f 5b 83 f0 be
       0.24031408 0.9306705 0.54367083 -0.46975216
0001c0 2e c5 35 bc a6 3f c6 bd 6a 6e 04 3c 1f e2 95 be
       -0.011094375 -0.09680109 0.008082965 -0.2927408
0001d0 5b cf 03 3f 47 0e ac be f5 67 ac 3e a8 5d a3 bc
       0.51488274 -0.33604643 0.33673063 -0.01994212
0001e0 91 b0 a2 3f ab 37 6e 3e 70 75 0f 3f 72 35 38 3f
       1.2710134 0.23263423 0.5603857 0.7195655
0001f0 40 43 24 3f da 6e 7e be e2 46 56 be 8b e9 7e 3f
       0.64165115 -0.24846974 -0.20925477 0.9957511
000200 c3 a6 9b 3d 4b 16 a2 3f 04 8c 93 3d 2c 48 73 3e
       0.07600167 1.2663053 0.0720444 0.23758
000210 28 e0 c4 3f 28 b7 65 3d 02 d1 80 3f 10 fd 40 3f
       1.5380907 0.056082875 1.0063784 0.7538614
000220 dc 04 73 3f a3 74 fc 3e ce 53 89 3f 95 e2 37 3f
       0.9492929 0.49307737 1.07287 0.7183011
000230 ec f5 1b 3d 6f 61 a3 3e 35 5d 95 bf ef 98 85 3f
       0.038076326 0.31910273 -1.166907 1.0437297
000240 74 ca 86 be 60 a8 8c 3e f0 68 c9 3e 2a 3f 82 3e
       -0.26326334 0.2747221 0.39337873 0.25438815
000250 8e 79 3a bf 39 a8 04 be 88 67 00 3e df bd 92 be
       -0.7284173 -0.12954797 0.12539494 -0.28660485
000260 fa a0 65 3d d3 fd a4 bd 32 12 20 3e ac 2b e4 be
       0.056061722 -0.08056226 0.15631941 -0.4456457
000270 84 41 24 3f da 1c 99 be 39 7c 1f be 1a 06 9f bd
       0.6416247 -0.29904824 -0.15574731 -0.07764836
000280 83 9a 9b be 69 ce 5e be 7f 9a 28 3e 77 a8 e0 3d
       -0.3039132 -0.21758427 0.16465186 0.10969632
000290 a7 6c 3c 3f 70 2e 12 3e 46 28 ca be c4 5a 94 bc
       0.7360329 0.14275527 -0.3948385 -0.018109687
0002a0 84 6d 1b 3d d8 20 71 bf d4 d3 86 3d d5 22 75 3f
       0.03794624 -0.9419074 0.06583372 0.95756274
0002b0 72 51 42 be 46 8c bc 3d b0 50 19 3f 97 11 1c 3f
       -0.18976381 0.092064425 0.59888744 0.6096434
0002c0 73 6f 40 bd bc 66 67 3f ac 2b cd 3d 28 64 ce 3e
       -0.046981286 0.90391135 0.100180954 0.40310788
0002d0 f9 14 12 bf b5 e1 88 be 02 92 a5 bf b9 6e 87 bf
       -0.5706325 -0.267347 -1.2935183 -1.0580665
0002e0 f6 6e f6 3e 9f 1f fb 3e cf 3e 17 be 2e 47 ff bd
       0.4813153 0.49047562 -0.14770053 -0.12464748
0002f0 9f 1e 37 3f 1b 83 c0 bf 7c 57 31 3f 5d 4d 2f 3e
       0.715311 -1.504001 0.69274116 0.17119355
000300 a8 ec 96 be fd 07 14 3f 43 c5 80 bf 46 67 56 bd
       -0.2947743 0.5782469 -1.00602 -0.052344583
000310 67 d7 89 be 2d 3e 93 be 88 51 ea be 7e 13 31 bf
       -0.2692215 -0.28758374 -0.45765328 -0.6917037

arith.constant2 f4 [5]
000000 98 1b 4f be 53 ea 7c 3d b4 d3 3a 3e 7c f6 85 3d
       -0.2022537 0.061746906 0.18244821 0.06541154
000010 0c 24 0d bd
       -0.034458205

arith.constant3 f4 [10]
000000 a1 c9 10 3f c2 3c a7 3e d5 d1 12 3f b7 23 8d 3e
       0.5655766 0.32663542 0.5735143 0.2756631
000010 be ab 83 bd 26 31 b1 be 5a 7e 62 3e 4e aa 28 3e
       -0.064292416 -0.3460781 0.22118512 0.16471216
000020 7c 09 84 3e 0b 53 02 3f
       0.25788486 0.50907964

sequential_7_1/dense_21_1/Add/ReadVariableOp f4 [20]
000000 ee 5b 18 3e b8 ef b8 be bb 6c e7 3d cf 2c 0a bf
       0.14878818 -0.3612039 0.113000356 -0.5397462
000010 19 fc 5a bf 5c 40 33 bf 9e b4 b0 be 94 90 db bd
       -0.8554092 -0.7002008 -0.345128 -0.107209355
000020 cc 25 03 bf 1e 25 c3 be a6 fe 14 bf d5 84 2d bf
       -0.5122955 -0.38114256 -0.5820106 -0.6778081
000030 b4 cd b5 3d 04 21 db be ba 29 80 bf df c5 27 bf
       0.088771254 -0.42798626 -1.0012734 -0.655363
000040 a3 63 d0 be f9 5a 0c bf 05 fd ef be fe a9 d5 be
       -0.40701017 -0.54826313 -0.46872726 -0.41731256

sequential_7_1/dense_21_1/MatMul f4 [20, 42]
000000 40 0d 28 3c 7e 73 28 be bc 43 86 bd d5 e4 f8 3e
       0.010257065 -0.16450307 -0.06555888 0.48612085
000010 b0 0a 84 bd a0 9f f6 3e d2 4a cc 3a 90 a3 f5 3e
       -0.06447351 0.4816866 0.0015586263 0.4797635
000020 6e 6d 0d 3d 1b 06 e3 3e e5 47 7d bd 4f d5 a2 3d
       0.03452819 0.44340596 -0.061836142 0.07950842
000030 da fe 8b bc 64 c2 15 bd 5e 21 fb 3d f5 9d a1 bf
       -0.017089296 -0.03656234 0.12262224 -1.262633
000040 d1 9f 4d 3e 00 cc 9c bb 9c cd 5d be 38 b1 bd 3c
       0.20080496 -0.004785061 -0.21660465 0.023155794
000050 df 95 25 bd 08 96 a3 3d f0 cd 25 3c d2 49 32 3d
       -0.04042613 0.079876006 0.0101199 0.04352743
000060 55 74 4a 3d 70 36 25 bd 30 50 2b 3d 7c 43 92 3d
       0.04942735 -0.04033512 0.04182452 0.07141778
000070 e6 a3 e7 bd 21 e4 dc 3d a1 88 a8 bd ee 9a ce 3d
       -0.11310558 0.107857 -0.08229185 0.10088144
000080 a1 74 5a 3b f1 30 61 3d 4d de dc 3d 4c 2b dc 3d
       0.0033333676 0.054978315 0.10784588 0.10750446
000090 91 8b c5 3d 63 f9 f4 3d af c9 77 3d 1e 52 0d 3e
       0.09645761 0.11961629 0.060495075 0.13800856
0000a0 e9 de dd bd 07 6a be 3d a8 c4 9e be 60 fc a3 3c
       -0.10833532 0.09297567 -0.31009412 0.020017803
0000b0 58 5e b2 bb d8 ac 6f 3e 76 d7 c4 bd eb c5 e7 bd
       -0.0054433756 0.23405778 -0.096114084 -0.11317047
0000c0 96 c3 b8 be 13 73 2e be 2b 27 22 bf ee 04 12 be
       -0.3608672 -0.17036085 -0.63341016 -0.14259693
0000d0 8b c1 ef 3c e5 bd 72 3e 10 8c 06 3d ee c4 a2 3d
       0.029267093 0.23705252 0.032848418 0.079477176
0000e0 b6 73 9c 3c 1e 15 cc bc 62 5b e9 b9 a4 26 7f bc
       0.019098144 -0.024912413 -0.0004450931 -0.0155731775
0000f0 cf dc 87 3b 78 8c 6b 3e 47 6f 84 3d 10 25 da bb
       0.0041461955 0.23002803 0.06466537 -0.00665725
000100 8c 47 93 3e a9 07 d3 bd 1a 7d b7 3e fa 0e cd bd
       0.28765523 -0.103041954 0.35837632 -0.10012622
000110 7e 03 af bd 5b d1 8b 3e 30 6c ad 3d ff bf 35 bd
       -0.08545588 0.27308163 0.08467901 -0.044372555
000120 2a 6e a6 3e 37 a4 91 bd 1d 7d 15 3f 84 44 b7 bd
       0.32505924 -0.071113996 0.5839403 -0.08948615
000130 a4 99 2b be 2b 14 84 3e ac a5 f1 bc 60 86 0b 3d
       -0.16757828 0.25796637 -0.029497944 0.034063697
000140 34 a8 89 3e 10 8c 01 bd 55 9a c6 3e a3 cc 19 3e
       0.2688614 -0.031627715 0.3878962 0.15019469
000150 42 5d 12 be 10 56 75 bd 7f ec a8 3d 5c b8 85 3c
       -0.14293388 -0.05989653 0.08248233 0.016323261
000160 8e f3 4a bd 1b c3 55 be f5 94 b2 bd e4 27 96 be
       -0.049548678 -0.20875208 -0.087198175 -0.2932731
000170 4c 68 0f be 25 d9 e2 be 93 16 56 be cd c3 30 3e
       -0.1400463 -0.44306293 -0.20907049 0.17262192
000180 f8 3e a3 bd a3 d6 df bd 06 5b 85 bd a7 74 ae bd
       -0.07970995 -0.109296106 -0.06511502 -0.085183434
000190 84 29 f4 bd 3f 76 f6 3d a2 ca 16 be 2a c1 48 3e
       -0.11921981 0.120342724 -0.14725736 0.19604936
0001a0 65 86 9d bd 0b 45 14 be 20 14 a0 3d cd 67 37 3e
       -0.07691649 -0.14479463 0.078163385 0.1791069
0001b0 c5 06 73 3e 7e 49 4d 3f d0 f3 18 be d7 91 b6 bd
       0.23733051 0.80190265 -0.14936757 -0.089145355
0001c0 f5 ce d9 bd 1b 37 7e be e5 2b 90 3e 25 02 d7 3e
       -0.10635177 -0.24825709 0.2815849 0.41993824
0001d0 0e fc 09 3e 88 eb 72 3f 34 89 ad bd d4 fe c4 bd
       0.13475057 0.9489064 -0.08473435 -0.09618917
0001e0 48 0a 2e be a5 f5 34 be fe 6f 30 3d df 99 e4 3e
       -0.1699611 -0.17671831 0.043075554 0.44648644
0001f0 8e 40 10 3f 26 fc 3f 3f ad a2 93 be 98 4f 09 3e
       0.563485 0.74994123 -0.2883505 0.13409269
000200 50 59 e7 3c 30 c1 1f 3e 17 73 81 3d f6 1b 59 be
       0.02824083 0.15601039 0.0632078 -0.21202073
000210 c2 24 cc 3d bb 14 ed be db f3 11 3d 7e e7 fe be
       0.099679485 -0.4630488 0.03563295 -0.4978599
000220 7e 5a 97 bd 20 bd e0 3d 27 bc 28 3d f2 49 3f bd
       -0.07390307 0.10973573 0.04119506 -0.04670138
000230 75 43 57 bb d1 ef ce 3a 8a 97 35 bc 2d e4 06 bd
       -0.0032846604 0.0015788024 -0.011083493 -0.03293245
000240 03 7a 46 bd 4f ce 24 3d 38 05 41 3d fa 1a 89 be
       -0.048456203 0.040235814 0.047124118 -0.26778394
000250 f6 31 77 bd f4 e6 88 3d ef 1a 16 be 2e c1 c6 3e
       -0.06035038 0.06684676 -0.14658712 0.3881926
000260 83 c5 23 bd 99 c6 84 3d 98 f0 94 3c e9 56 fb bd
       -0.039983284 0.06483192 0.01818113 -0.12272436
000270 54 f1 19 ba 6e 22 a1 3e bb 8f 75 be cc e6 56 3f
       -0.00058724475 0.3147158 -0.2398061 0.8394592
000280 aa 6c e0 3d 6e 87 0a be b1 92 9e 3d c2 4a 07 be
       0.10958226 -0.13528225 0.07742823 -0.13212112
000290 20 c8 76 3b 81 33 bc 3e fe e9 7c be 83 16 6c 3f
       0.0037655905 0.36758044 -0.24698636 0.9222185
0002a0 d3 7b 8d be 72 eb 3a be 6b 86 7e 3f 27 36 a6 be
       -0.27633533 -0.18253878 0.99423856 -0.3246319
0002b0 e4 cf ef 3e 52 43 89 be e8 35 f8 3e 7f 29 b1 bd
       0.46838295 -0.26809174 0.48478627 -0.08650493
0002c0 ec d7 0a 3f 8c f3 0d 3c ab da bc 3d 05 bd d1 bd
       0.5423572 0.008664023 0.09221395 -0.10241131
0002d0 dd 16 32 3d bb a7 b3 3d fd 33 67 be 71 1a 19 3e
       0.043478835 0.087722264 -0.22578426 0.14951493
0002e0 ae 9a 8b be ff 07 a4 3d 3c 41 ac 3d 3f 22 07 be
       -0.2726645 0.08009338 0.0841088 -0.13196658
0002f0 b5 a9 66 bd 51 12 95 3c 38 f2 81 3e 7f 2f ec bd
       -0.05631419 0.01819721 0.2538011 -0.11532497
000300 31 cf 2a 3f d1 2e c1 bd f7 7f 93 3e 6c fd 8b bd
       0.667224 -0.09432758 0.28808567 -0.06835446
000310 36 68 be bd 47 ca b3 3c 36 d5 c2 3b 5f bb 7a be
       -0.092972204 0.02194704 0.005945827 -0.24485539
000320 82 c4 2c 3f c3 2d cf be 01 e3 fa 3c d7 73 07 3d
       0.6748735 -0.404646 0.030625822 0.033069458
000330 b5 d7 36 be 43 b9 08 3d f9 9a 30 bf eb 05 23 be
       -0.17855723 0.033379804 -0.6898647 -0.15920226
000340 02 f4 cb be 09 70 67 be e0 bf 4c 3e e0 fc 83 bc
       -0.398346 -0.22601332 0.1999507 -0.016111791
000350 26 cf fc be 36 6c 1f be 28 15 7a be c0 b1 8e be
       -0.49376792 -0.15568623 -0.24422133 -0.27869987
000360 a7 5e b4 be ea 34 ba bd 05 d2 8b be 40 ec c2 be
       -0.35228464 -0.09092124 -0.2730867 -0.3807087
000370 d5 8e 57 3e 4d 75 3c 3c 4a 4c 7d bd af 1d ad 3d
       0.2105058 0.011502576 -0.061840333 0.08452927
000380 d8 20 87 3d 88 cd 57 3e 1f 5c c3 3d cd 88 ef 3d
       0.06598061 0.21074498 0.09539055 0.116960146
000390 bf ce 75 3c 66 49 eb bc 66 e2 9c 3c 10 48 03 be
       0.015002905 -0.028721523 0.019150924 -0.12820458
0003a0 63 2a 09 3d 3f cb 00 bd 83 76 d6 bd 6c 62 d5 3c
       0.03348769 -0.03144383 -0.10471823 0.026047908
0003b0 95 81 48 3d 19 ee 80 bd 2c 5e 1a 3d f2 7f 31 be
       0.048951704 -0.062954135 0.037687466 -0.17333964
0003c0 17 08 d3 3d 1e 75 4e bd c7 89 82 bc db 12 25 3d
       0.103042774 -0.05040466 -0.015934838 0.040301185
0003d0 e2 2f 80 be fc cc 88 be 83 b0 04 be 42 ce b1 be
       -0.25036532 -0.2671889 -0.12957959 -0.34727675
0003e0 7d e8 3d bd 64 a5 3c be c9 61 22 be e3 ce c3 bc
       -0.046364296 -0.18422467 -0.15857615 -0.023902362
0003f0 04 9d 89 be d2 b9 8d 3e 13 47 04 bd 45 51 b4 3e
       -0.26877606 0.27680832 -0.032294344 0.35218254
